okay_Nancy.tflite (tflite, 206976 bytes, 9 tensors)

arith.constant f4 [1, 32]
00000000: 5a11 003e 55e1 b9be 2859 c2be 6f7b 1f3d
00000010: 8eee 523e e840 b0be 5bd5 3f3e 1ad2 b4be
00000020: 0071 263e cd57 5e3d 3ae8 863e 30b5 7bbb
00000030: bcad 8dbc 2555 913c 2cc4 babe 0d88 293e
00000040: 33c7 933d 6784 6bbd c628 a63d 149e b4be
00000050: 0c01 883d cca6 a7be fecd 263e 0c29 a73d
00000060: 39eb b6be 980f 903c 718b f93d cfc5 fc3d
00000070: aff1 a7bd 71dd 103e 5391 adbe a85f 203e
0.12506619 -0.36304727 -0.37958646 0.038936075 0.20598814 -0.3442452 0.18733732 -0.35316545
0.16254044 0.054282952 0.2634905 -0.0038407557 -0.017294757 0.017740795 -0.36477792 0.16555806
0.072157286 -0.057499316 0.08113246 -0.35276854 0.06640825 -0.32744443 0.16289517 0.08162126
-0.35726336 0.01758556 0.121847995 0.123424165 -0.08200394 0.14146973 -0.33899936 0.1566149

arith.constant1 f4 [32, 32]
00000000: 15d2 1c3e dee4 24bd 2762 e9bd 6618 9a3d
00000010: b0c7 f83d 0d60 13be c829 2cbe 7f90 c4bd
00000020: e9f2 19bc b733 d43d 6962 a63d a417 083e
00000030: 777b d8bd 5945 d6bd c3dc e9bc f778 dcbd
00000040: d642 f1bd e955 f43d 6b00 3b3e b59f 9c3d
00000050: 0345 873c 3bea 733d 8f55 04be e456 253e
00000060: 6575 123d 27bc f0bd f389 1f3e 860f 103e
00000070: f09c 393d 3c2b 0abe 9d64 34bd 7473 c3bc
00000080: 5b63 7e3d 5e2d 4fbd c6c0 2c3e 8063 37bd
00000090: 2ce5 03be 78f8 8c3d 8799 1e3e 288a 29be
000000a0: f93b 2dbd 3833 313d 2219 173e 3caa f7bd
000000b0: 6162 f9bd c814 a0bd b4d6 36be b096 0bbe
000000c0: 38c5 1abe e1cd 14be 3b8e 65bc 9334 8bbc
000000d0: 9a96 a3bb 72f9 c6bd 142f d93d 2583 a1bb
000000e0: a036 1abe d4ef bc3d f441 24be 4757 acbd
000000f0: 84aa 1c3e 7796 6a3d 5aba d2bd 8faf 393d
00000100: 46dd 2d3e eccf 063e e9a9 cbbd 3760 2bbe
00000110: 67a2 c8bd d6de 0f3e 1645 d3bc 7969 9fbc
00000120: 7725 103e 4c8f 62bb 694b 383e dac1 e63d
00000130: 6501 91bd 6622 3f3d d2ce 0abd eb62 16be
00000140: 2485 323e 6e18 983d 1195 dabc 180c 403e
00000150: b024 973d b90e 90bd 03c0 9cbd 70f8 40bd
00000160: e4ff 3d3b bf21 853b 4e84 a0bc 0d08 0d3d
00000170: 4661 743d 6f03 293e 7b49 04be 3d5c cdbd
00000180: e5e7 23be 80bd 2e3e bef6 1cbc 6596 5c3d
00000190: a354 1fbe a358 8cbd f8e5 9bbd 885a 323c
000001a0: 3df7 013e 0468 6abd 331b 433d 7e72 903d
000001b0: 6779 16be f748 05be d5c7 2d3e e329 ae3d
000001c0: df96 c23d 7968 923d 65b3 c8bd 5a98 d6bd
000001d0: b465 90bd 290d 0dbe 9a1b 00be c235 f53d
000001e0: abb9 313e 1cf4 a3bd 4941 12be 7e94 2a3e
000001f0: ecfd 253d 5919 f93d d7d2 8d3d d931 fdbd
00000200: 9f01 91bc 55a3 853d eb91 6dbd f624 013e
00000210: d319 2dbc fc95 eabd cd6e b63d 385b 823c
00000220: b995 583e 09c0 c33d 017e 10be 4bbe 033e
00000230: 78c7 7d3c 408c 083e d087 33bd 00d1 14bd
00000240: ab34 03be 4571 303e b3e7 003d 7696 2ebe
00000250: 47fe 50bd ecd6 bfbc 27d4 053e f235 eebd
00000260: 75a0 e0bd 95c2 3fbe 5875 a23d 7bcc 95bd
00000270: f849 263d 471c e9bc 31bf 90bd 36ff b8bb
00000280: 0bad daba 4f1d 40bd 6ada b6bd 3457 e03d
00000290: dd0e 3a3d f8a1 da3d 7b30 1a3e d721 29bd
000002a0: 2c1a ddbc a4e4 c33d 4477 bebc afa1 a9bd
000002b0: 160a 5dbc db84 d4bc ef52 c23c 6cd4 1c3d
000002c0: ecac 75bd 710b ffbc 290d 53bc fe3d b53c
000002d0: c4ac 19be d631 e2bd a45e 2cbd ddd6 73bc
000002e0: d0aa 07be 82bb a13d fd1c 1f3b 7a1b 633d
000002f0: d376 a1bd 009a d53d 07b2 64bd fc7b d8bb
00000300: 8544 15be e14f bd3d 2d20 d6bd 6d6b 05be
00000310: c23f 273b 760a aabd e68c 6fbd a1e6 49bd
00000320: 7e4c 80bd 6089 2f3e 65ae d2bd 2e13 c83d
00000330: 294a bebd 6ea8 8ebd 5971 5c3d aa4a 63bd
00000340: d01c 1ebe bf99 413e ad08 bdbd 1bd6 e53c
00000350: 9e9e 343e 7c3a af3d f1f0 4abd d647 833d
00000360: 9962 023e 2d1b 213b 6df9 543b cfbe ff3d
00000370: 9b7c 4d3c b4db 853c 7a38 98bd 546e ec3d
00000380: 91ba 34be a079 b8bd a6bd c5bd af28 53bd
00000390: d9f8 603d f900 b33c 5468 0a3e 0776 143e
000003a0: 5c22 d1bd e00c dcbd 62fd 94bd e5a6 cb3d
000003b0: c5e8 d43d f854 c93c 2daf 903d fa34 9c3d
000003c0: d6bc 0dbe a777 923d 42fe c93d 7718 ef3d
000003d0: f5ac a7bd b689 a03d 3630 21bd 0b8d 71bd
000003e0: 6fbf a83d bcae 443e 1bea f13c 2925 e93d
000003f0: 6fbb cf3d a588 00be c424 70bd 4afa 263e
0.15314515 -0.040257327 -0.11395674 0.07524185 0.12147462 -0.14392109 -0.16812813 -0.09597873
-0.009396293 0.10361426 0.08124239 0.13290268 -0.10570424 -0.10462446 -0.02854765 -0.1076526
-0.11780326 0.119304486 0.18261878 0.07647649 0.0165124 0.05954955 -0.12923263 0.16146427
0.035756487 -0.11754637 0.15579967 0.14068422 0.045315683 -0.13493055 -0.044041265 -0.023858763
0.06210647 -0.050580375 0.16870412 -0.044772625 -0.12880391 0.06883329 0.15488254 -0.16556609
-0.042293523 0.043261737 0.14755681 -0.120930165 -0.121769674 -0.07816464 -0.1785534 -0.13631701
-0.15114295 -0.14531662 -0.014010961 -0.016992843 -0.0049923183 -0.09715547 0.106046826 -0.0049289637
-0.150599 0.09225431 -0.16040784 -0.08415084 0.15299422 0.0572724 -0.1028945 0.04533344
0.1697894 0.13165253 -0.09944517 -0.16735922 -0.09796601 0.14049849 -0.025789779 -0.019459473
0.14076792 -0.0034570275 0.17997517 0.11267443 -0.07080344 0.046663664 -0.033888645 -0.14686172
0.17433602 0.074265346 -0.026682409 0.18754613 0.073800445 -0.07034058 -0.07653811 -0.04711193
0.0028991634 0.0040628607 -0.019594338 0.034431506 0.05966308 0.16505216 -0.12918656 -0.10027359
-0.1600643 0.17064476 -0.009580312 0.053854365 -0.1555963 -0.068528436 -0.076122224 0.010885842
0.1269197 -0.057228103 0.04763336 0.07053088 -0.14694749 -0.13016115 0.16970761 0.08504083
0.095014326 0.07148833 -0.09799842 -0.104782775 -0.07050648 -0.13774551 -0.12510529 0.11973144
0.17355983 -0.080055445 -0.14282717 0.16658208 0.040525362 0.12163038 0.0692498 -0.12363023
-0.017700968 0.06525294 -0.058000486 0.12611756 -0.010565239 -0.114543885 0.08907852 0.015912637
0.21150865 0.09558112 -0.14110567 0.1286556 0.015489452 0.13334751 -0.043830693 -0.03633213
-0.1281306 0.17230709 0.031470966 -0.17049584 -0.051023748 -0.023417912 0.13069211 -0.11631383
-0.10968105 -0.18726571 0.07932538 -0.07314392 0.040597886 -0.028455867 -0.07067717 -0.005645658
-0.0016683651 -0.04690295 -0.08928378 0.10954133 0.04542433 0.10675424 0.15057556 -0.041292038
-0.026990019 0.09565094 -0.02325023 -0.08282792 -0.013491174 -0.025942257 0.023721186 0.03828852
-0.059979364 -0.031133385 -0.012881556 0.022124287 -0.15007311 -0.11044662 -0.042082444 -0.01488277
-0.13248754 0.078970924 0.0024278753 0.055446126 -0.07883992 0.10429764 -0.055833843 -0.006606577
-0.1457692 0.09243751 -0.10455356 -0.13029261 0.002552018 -0.083027765 -0.05848398 -0.04929221
-0.0626459 0.17142248 -0.10287169 0.09769283 -0.09291489 -0.06965719 0.053819034 -0.055491127
-0.15440679 0.18906306 -0.092301704 0.028056195 0.17638633 0.08556077 -0.049546186 0.06410186
0.12732925 0.0024582848 0.0032497302 0.12487566 0.012541915 0.016340114 -0.07432647 0.11544481
-0.17649294 -0.09007573 -0.09655313 -0.05155247 0.05492482 0.02185105 0.1351636 0.14498149
-0.10211632 -0.10744643 -0.072748914 0.09943942 0.1039596 0.02457665 0.07064662 0.07627292
-0.13841566 0.07151728 0.09862949 0.11674588 -0.08187286 0.07838766 -0.03935262 -0.0589724
0.08239638 0.19207281 0.029530575 0.11384041 0.10143172 -0.12552126 -0.058628812 0.16306415

arith.constant2 f4 [32, 1536]
00000000: b623 94bb aad1 a03c d829 83bc ad73 babc
00000010: e4db c33b 46b0 acbc adcd 03bc e029 55bc
00000020: 4e69 e439 122c 203c 7fd1 b23c 58a1 96bc
00000030: dd34 97bc 60d9 fd3b ebc6 87bc fa77 cbbc
00000040: ef51 0ebd dfc2 c539 6a9f 533c ea72 4f3b
00000050: cdb6 04bd 9660 323c f163 8f3b 07b4 ff39
00000060: 31de 18bc e258 b03b ba9f ad3c 08ec 19bc
00000070: 4e8f 573c 6896 a9bc 7029 073b 2485 903c
00000080: 3295 a03c 928c abbc e9cb 57bb 6157 533c
00000090: 02d3 b63c ed59 773c 8f1c b538 c885 66bb
000000a0: 098d a33c 928a b9bc ba87 2aba d9f5 403c
000000b0: 23dd c6bc 41f6 8f3b 4bf3 9fba 724e 1bbb
000000c0: 2f16 073b 76ef dc3b 6d46 e63c b893 1f3c
000000d0: 82ce bbbb 615b be3c 55a8 a63c dcf8 1bbb
000000e0: 71e8 3a3b 30f4 a2bc 07d6 83bc 0f47 b2bc
000000f0: fb63 2f3c 95e0 e63b d4ff a43c 5e93 783c
00000100: 14f8 b6bc 7052 db3c 0056 803b 4385 0c3c
00000110: 1666 a93c 2070 aabc 12c4 5bbc 41c8 45bc
00000120: 0600 d53c 878f af3c 4037 38bc 575f 74bc
00000130: 6a22 113c b234 8f3c 7ae0 d3bc dfae 4cbc
00000140: 53d8 c1bc 8b6d 8d3b 1fa7 a5bb 2e1c bc3c
00000150: 4c99 1f3c f037 ddbc 1885 393c ab2f f8bb
00000160: c4f4 a33b b1ee 983c 99be 0e3c 9e5a fbbb
00000170: c590 9b3c df32 953c c86a eabb 0206 aa3c
00000180: 5cea c6bb 9ab4 803c 6985 be3c 5e01 d0bc
00000190: 91b5 8bbb 5bd7 37bb f92a 84bb 9051 9cbb
000001a0: 7343 aab8 5036 05bc 2abb acbc f01e 893c
000001b0: 0141 63bc 2294 9a3b 1b41 1c3c 7c70 643b
000001c0: fa29 b1bc 12a8 bb3c 61ca cbbc ba67 923b
000001d0: 9179 293c 66fc ba3c e7e7 d7bb 2cc0 3a3c
000001e0: f8ec aabc 545a 27bc 4ff6 d83b 21e8 063c
000001f0: 2494 04bb d2d7 a1bb de26 b23c 86c4 8cbc
00000200: c64f 0abc c7d2 053c 56e8 553c e9bc 76bc
00000210: 2c70 46bc 5df1 303b 4d44 d43b 8a01 46bc
00000220: 7154 9d3c 2139 d0bb 940b 49bb a599 b83a
00000230: 246c c2bc a1e4 063c 1fbb 0c3b 28b3 b3bc
00000240: 66ff dfbb 2066 283d aca1 613b 82fe 89bb
00000250: 4919 8c3c ad6a 013c 37b1 fd3b 0e76 4f3b
00000260: 25a0 f63b a5b5 b6bc bc1c c3bb 1492 8a3c
00000270: 9073 9c3c 269f ccbb e0a2 603c eca3 0bbb
00000280: 7528 0b3c b677 27bb af3f d93b 20ec 023c
00000290: 725c fd3b df1a 94bb 1be4 65bc ad28 1cbc
000002a0: b6f4 4fba 536c 653c b6ac a43c fa05 313b
000002b0: 9abb 9a3c 14f6 9d3a 7c84 3bbc 69cd 583c
000002c0: 7575 953c 720a d139 aafa 833c 40ac 913a
000002d0: 22a5 d03c c121 a0bc 3a46 bebc b9c5 a1bb
000002e0: f418 843b 8fd8 483c bb11 6b3c a4da 453c
000002f0: 7b76 a8bc c9ae 9a3c f60b 4d3c a6e4 97b9
00000300: c234 b53b 7683 643c 099d 5a3c ed85 98bc
00000310: 3839 b63a 956c b5bc 8712 1f3c 3c45 2dbc
00000320: d3bc 2fb9 c8a3 a83c cc3f 9dbc 3a7f 6d3c
00000330: 13a5 3ebc 337d 1fbb 7de6 6fbb 25af a6bb
00000340: 0d80 cb3c 676a dc3b 3deb 9d3c 4ee6 a3bc
00000350: df5b e93b af61 8d3c 721d fcbb ff4d d1bc
00000360: f1aa 6fbb f2d3 b23c 34a9 34bc 8dd9 9cbc
00000370: f105 8bbc e3f1 78bc f1d2 8f3c dd20 0bbc
00000380: 712a 2abc 6091 6c3c 73f4 86bc 06b8 a93c
00000390: 0c70 ca3c fabd ab3c 1e18 8ebc 0198 973a
000003a0: 076f c93b 0a82 9a3b 8bc2 a6ba 5986 123b
000003b0: 5f4d ab3c 9637 dbbc 6fef 2cbc fbf0 cbbc
000003c0: c87c 7bbb 9f0a 413c 219e ec3b 19b1 cabc
000003d0: 2130 0b3c 2942 8b3c fbd2 67b9 bb5c 863c
000003e0: ef5d 88bc 1d8b 9dbb 93ff b4bc 851c 243c
000003f0: 427b fc3b 24b0 b93c 46e3 ebbb 3f5d 163a
-0.0045208586 0.019631226 -0.016011164 -0.022760237 0.0059771407 -0.021080147 -0.008044642 -0.013010472
0.00043566007 0.009776132 0.021828411 -0.018387482 -0.018457824 0.0077468604 -0.016574344 -0.024837483
-0.034746107 0.00037719958 0.012916425 0.0031654187 -0.032400895 0.010887286 0.0043759276 0.0004877152
-0.009330318 0.0053816894 0.021194328 -0.009394653 0.013156725 -0.020701602 0.0020624064 0.017641611
0.019602392 -0.020941053 -0.0032927936 0.012899251 0.022317413 0.015097124 8.636072e-05 -0.0035174955
0.019964712 -0.022649083 -0.000650521 0.011777365 -0.024275368 0.0043933694 -0.0012203244 -0.002369788
0.0020612588 0.006742413 0.028109754 0.009739809 -0.0057314048 0.023236932 0.020343939 -0.0023799455
0.0028519894 -0.019891828 -0.016093267 -0.021762399 0.01070499 0.0070458152 0.02014152 0.015171854
-0.02233509 0.026772708 0.003916502 0.008576694 0.020678561 -0.020805418 -0.013413446 -0.01207167
0.026000988 0.021430744 -0.011243641 -0.014915309 0.008858303 0.017481182 -0.025863875 -0.012492864
-0.023662722 0.004316037 -0.005055323 0.022962656 0.009741139 -0.027004212 0.011323236 -0.007574042
0.0050035436 0.018668504 0.008712434 -0.0076707145 0.01898993 0.018212734 -0.0071538426 0.020754818
-0.0060704183 0.015711118 0.023256974 -0.025391277 -0.0042635878 -0.0028051946 -0.004033443 -0.004770465
-8.118795e-05 -0.008130625 -0.02108534 0.016738385 -0.013870479 0.004717366 0.009537007 0.0034857085
-0.021626461 0.02290729 -0.024876775 0.0044679316 0.010343925 0.022825431 -0.006588924 0.011398356
-0.020864949 -0.010214407 0.006621159 0.008234055 -0.00202299 -0.004939058 0.021747049 -0.017183553
-0.008441871 0.008167929 0.0130558815 -0.015059688 -0.012111705 0.0026999332 0.0064778687 -0.012085328
0.019205304 -0.0063544665 -0.0030677067 0.0014083876 -0.023733206 0.00823322 0.0021473838 -0.021936014
-0.006835866 0.04111302 0.003442864 -0.004211248 0.0171019 0.007898969 0.007742073 0.003165606
0.007526415 -0.022303412 -0.005954353 0.016915359 0.019098073 -0.006244558 0.013710707 -0.0021307422
0.008493532 -0.002555353 0.006629906 0.007990867 0.0077319676 -0.004519805 -0.014031435 -0.009531182
-0.0007932888 0.014002877 0.020101886 0.002701162 0.018888284 0.0012051486 -0.011445161 0.013232567
0.018244484 0.0003987137 0.016110737 0.0011113957 0.025469366 -0.019547345 -0.023226846 -0.0049369005
0.004031295 0.012258663 0.014347489 0.012076054 -0.020564308 0.018882172 0.012515059 -0.0002897132
0.005529971 0.013947358 0.013343104 -0.018618548 0.001390255 -0.022146503 0.009709007 -0.010575589
-0.00016759643 0.02058591 -0.01919546 0.014495665 -0.011636036 -0.00243361 -0.0036605888 -0.005086797
0.024841333 0.0067265513 0.01927721 -0.020007279 0.0071215476 0.017258493 -0.00769394 -0.025549887
-0.0036570395 0.021829579 -0.011026669 -0.019146705 -0.016970607 -0.015194389 0.01755664 -0.008491722
-0.010386095 0.014438957 -0.016473984 0.020717632 0.024711631 0.020964611 -0.017345484 0.0011565686
0.0061472687 0.004715209 -0.0012722773 0.002235791 0.020910917 -0.026759904 -0.010555132 -0.024895182
-0.0038373936 0.011782317 0.007220999 -0.02474265 0.008495362 0.016999321 -0.00022108473 0.01640164
-0.016646354 -0.0048078434 -0.022094524 0.010016565 0.007705123 0.022666998 -0.007198724 0.00057359406

model_8/tf.__operators__.add/AddV2/y f4 [32]
00000000: baa2 c0bc 3a36 8bbc 5415 4abc f7db 2fbc
00000010: 84be acbc 0780 863c 6339 883c a475 933b
00000020: f2f8 0a3c 67a0 64bc 843b 183b ac0d 5ebb
00000030: e2d0 483c 03b4 da3c cc21 0bbb 2a45 6abc
00000040: 48df 0dbc 0e1d 90bc 831b 59bc 650b 9f3c
00000050: 5525 dbbc d966 ae3c 3be5 57bc e95e 44bc
00000060: 1486 afbb 995f 8c3c 3f75 05bb f2de d53b
00000070: c06c a8bc 495a 91bc 1110 b2bc f55b 81bc
-0.023515094 -0.01699363 -0.012334187 -0.010733596 -0.021086939 0.01641847 0.016628927 0.004500108
0.008482205 -0.0139542585 0.0023228833 -0.003388266 0.012256833 0.026697164 -0.0021229861 -0.014298717
-0.008659191 -0.01759198 -0.013251188 0.019414613 -0.0267512 0.021289276 -0.013177211 -0.011985519
-0.0053565595 0.017135428 -0.0020364074 0.0065268213 -0.020559669 -0.017743247 -0.021736177 -0.015790919

model_8/tf.__operators__.add_1/AddV2/y f4 [32]
00000000: 7a8e b0bd 58c2 d63d 7100 aebd 9587 68bd
00000010: b14a e73d 32be 813c 14a6 b6bd 7910 073d
00000020: 95b8 1a3d 7db7 443e b448 e63d ef69 ec3d
00000030: 949c 82bd 1c3a 19bd 76ad c13d 9c29 05be
00000040: 5be3 8c3d b098 5b3d c2a4 c83c 026e 14be
00000050: 811e a9bd f9c9 a8bd ebd8 853d 8f23 263d
00000060: 4237 d63d 0739 ddbd 2357 0b3e b9da 2a3e
00000070: 31b0 c93d 33c2 203e 81aa c7bc 051d d5bb
-0.08620925 0.10486287 -0.08496178 -0.056769926 0.11293543 0.015837763 -0.08918396 0.032974694
0.037773687 0.1921062 0.11244336 0.11543643 -0.06377521 -0.037408933 0.09456913 -0.13004154
0.06879302 0.05361241 0.024492625 -0.1449509 -0.08257771 -0.08241648 0.065355144 0.040561255
0.10459758 -0.10801893 0.13607459 0.16684999 0.09848059 0.15699081 -0.024373295 -0.0065037035

model_8/tf.math.add_2/Add/y f4 [1, 32]
00000000: 8911 80bc bf65 5cbc fa75 823b 2d79 b93c
00000010: 7f13 84bc ce5c 61bc a2c2 a83b a43d 4dbc
00000020: d7a0 de3c b3c2 de3c 19d5 b13b 7cf3 84ba
00000030: e64c 1bbd 0e63 4e3c 8e66 12bd 4d1b 22bc
00000040: 02aa 90bc 25fb c63b fc6c 82bc 2828 153c
00000050: 8aec 0f3b f78c 69ba 092a e8bb 74d9 983b
00000060: 0202 babc 1ec7 d83a 425b 40bc d2e2 de3c
00000070: 9b50 70bc 2f2b c9ba 56e9 8239 7e93 423c
-0.015633361 -0.0134519925 0.003981349 0.022640789 -0.016122578 -0.0137550365 0.005150155 -0.012526903
0.027176304 0.02719245 0.0054270145 -0.0010143365 -0.037915133 0.012596859 -0.035742335 -0.009894204
-0.017659191 0.006072419 -0.015921108 0.009103812 0.0021961057 -0.000890925 -0.007085089 0.0046645943
-0.022706036 0.0016538834 -0.011740508 0.027207766 -0.014667655 -0.0015347953 0.0002496938 0.011875985

model_8/tf.math.add_5/Add/y f4 [1, 32]
00000000: 9bc3 903c 16ea 7e3e 57a7 7e3e abeb 483b
00000010: 635a 2e3d 866a 913e c2c6 453d 76c6 813e
00000020: 9977 ed3c aae8 1e3d e8e2 dd3c edbe 6e3b
00000030: ff2e c13b 9e23 92bc bc25 833e 1b88 333c
00000040: b5e3 b73c fcc0 c1bd edfe 7a3c 995b 8e3e
00000050: b1c2 7b3d 81b6 883e 6439 cf3a 6376 173d
00000060: 5588 823e 88a0 12bc df86 9b3b 8668 b33c
00000070: 5113 38bd 26a3 463d f40f 823e f4cb 4f3d
0.017671397 0.24893984 0.24868523 0.0030658047 0.04256667 0.28401583 0.048285253 0.25346726
0.028987693 0.038796104 0.027085736 0.0036429719 0.005895495 -0.01783925 0.25614727 0.010957743
0.022447446 -0.09460637 0.015319568 0.27804258 0.06146497 0.2670174 0.001580995 0.036978137
0.25494638 -0.008949406 0.0047463025 0.021900427 -0.044940297 0.048495434 0.25402796 0.050731614

model_8/tf.math.multiply_10/Mul/y f4 [1, 32]
00000000: 6504 7f3f 64a4 803f 8269 793f c11a 743f
00000010: 8719 7d3f cfda 7b3f 9e7f 7c3f 1231 7f3f
00000020: 7e6a 803f cde1 793f e963 7f3f b54f 7a3f
00000030: 4915 723f 327e 803f ce21 773f 2cef 7c3f
00000040: d13a 7f3f c71e 813f 0606 7f3f 6e79 843f
00000050: a769 813f a528 7f3f a278 7e3f f02c 803f
00000060: 7d32 7b3f 8191 823f feaa 7d3f 946b 7e3f
00000070: f140 7d3f f218 7a3f 7b5f 7f3f 9465 6f3f
0.9961608 1.0050168 0.9742662 0.95353323 0.98867077 0.9838075 0.9863223 0.9968425
1.0032499 0.9761017 0.99761826 0.97777873 0.9456373 1.0038512 0.96535957 0.9880245
0.9969912 1.0087517 0.99618566 1.0349557 1.0110368 0.99671394 0.9940282 1.0013714
0.98123914 1.0200654 0.9908904 0.993829 0.9892722 0.97694314 0.99755067 0.9351437

model_8/tf.math.multiply_22/Mul/y f4 [1, 32]
00000000: 71d6 813f 119b 9e3f 176d a03f 501c 813f
00000010: 334b 8e3f 9bce a93f fa25 863f 5bb8 9f3f
00000020: 6794 843f 853e 873f 2115 8c3f dafa 7e3f
00000030: aced 7e3f f632 7e3f c4f7 a13f 7caf 823f
00000040: 38a2 833f 5697 663f 5cd5 813f 8352 a83f
00000050: 409b 8d3f e1fe a23f c1af 813f ef67 883f
00000060: 111e a03f ee0c 7f3f fd43 813f e75b 833f
00000070: 2241 723f f193 8a3f 345f 9f3f 3397 893f
1.0143567 1.2391073 1.2533292 1.0086765 1.1116699 1.3266176 1.048034 1.2478136
1.0357789 1.0565954 1.0943948 0.9960152 0.9958141 0.9929651 1.2653737 1.0209804
1.028388 0.9007467 1.0143237 1.315018 1.1063004 1.2734033 1.0131761 1.0656718
1.2509176 0.99629104 1.0098873 1.0262421 0.94630635 1.0826398 1.2450929 1.0749267
